…
Self-Attention Sparsity Ratio=72.26%, Self-Attention Complexity Ratio=13.87%
Mask:
 tensor([[[[False,  True,  True,  ...,  True,  True,  True],
          [ True, False,  True,  ...,  True,  True,  True],
          [ True,  True, False,  ...,  True,  True,  True],
          ...,
          [ True,  True,  True,  ..., False,  True,  True],
          [ True,  True,  True,  ...,  True, False,  True],
          [ True,  True,  True,  ...,  True,  True, False]]]])
ECC_Transformer(
  (decoder): Encoder(
    (layers): ModuleList(
      (0): EncoderLayer(
        (self_attn): MultiHeadedAttention(
          (linears): ModuleList(
            (0): Linear(in_features=32, out_features=32, bias=True)
            (1): Linear(in_features=32, out_features=32, bias=True)
            (2): Linear(in_features=32, out_features=32, bias=True)
            (3): Linear(in_features=32, out_features=32, bias=True)
          )
          (dropout): Dropout(p=0.1, inplace=False)
        )
        (feed_forward): PositionwiseFeedForward(
          (w_1): Linear(in_features=32, out_features=128, bias=True)
          (w_2): Linear(in_features=128, out_features=32, bias=True)
          (dropout): Dropout(p=0, inplace=False)
        )
        (sublayer): ModuleList(
          (0): SublayerConnection(
            (norm): LayerNorm((32,), eps=1e-05, elementwise_affine=True)
            (dropout): Dropout(p=0, inplace=False)
          )
          (1): SublayerConnection(
            (norm): LayerNorm((32,), eps=1e-05, elementwise_affine=True)
            (dropout): Dropout(p=0, inplace=False)
          )
        )
      )
      (1): EncoderLayer(
        (self_attn): MultiHeadedAttention(
          (linears): ModuleList(
            (0): Linear(in_features=32, out_features=32, bias=True)
            (1): Linear(in_features=32, out_features=32, bias=True)
            (2): Linear(in_features=32, out_features=32, bias=True)
            (3): Linear(in_features=32, out_features=32, bias=True)
          )
          (dropout): Dropout(p=0.1, inplace=False)
        )
        (feed_forward): PositionwiseFeedForward(
          (w_1): Linear(in_features=32, out_features=128, bias=True)
          (w_2): Linear(in_features=128, out_features=32, bias=True)
          (dropout): Dropout(p=0, inplace=False)
        )
        (sublayer): ModuleList(
          (0): SublayerConnection(
            (norm): LayerNorm((32,), eps=1e-05, elementwise_affine=True)
            (dropout): Dropout(p=0, inplace=False)
          )
          (1): SublayerConnection(
            (norm): LayerNorm((32,), eps=1e-05, elementwise_affine=True)
            (dropout): Dropout(p=0, inplace=False)
          )
        )
      )
      (2): EncoderLayer(
        (self_attn): MultiHeadedAttention(
          (linears): ModuleList(
            (0): Linear(in_features=32, out_features=32, bias=True)
            (1): Linear(in_features=32, out_features=32, bias=True)
            (2): Linear(in_features=32, out_features=32, bias=True)
            (3): Linear(in_features=32, out_features=32, bias=True)
          )
          (dropout): Dropout(p=0.1, inplace=False)
        )
        (feed_forward): PositionwiseFeedForward(
          (w_1): Linear(in_features=32, out_features=128, bias=True)
          (w_2): Linear(in_features=128, out_features=32, bias=True)
          (dropout): Dropout(p=0, inplace=False)
        )
        (sublayer): ModuleList(
          (0): SublayerConnection(
            (norm): LayerNorm((32,), eps=1e-05, elementwise_affine=True)
            (dropout): Dropout(p=0, inplace=False)
          )
          (1): SublayerConnection(
            (norm): LayerNorm((32,), eps=1e-05, elementwise_affine=True)
            (dropout): Dropout(p=0, inplace=False)
          )
        )
      )
      (3): EncoderLayer(
        (self_attn): MultiHeadedAttention(
          (linears): ModuleList(
            (0): Linear(in_features=32, out_features=32, bias=True)
            (1): Linear(in_features=32, out_features=32, bias=True)
            (2): Linear(in_features=32, out_features=32, bias=True)
            (3): Linear(in_features=32, out_features=32, bias=True)
          )
          (dropout): Dropout(p=0.1, inplace=False)
        )
        (feed_forward): PositionwiseFeedForward(
          (w_1): Linear(in_features=32, out_features=128, bias=True)
          (w_2): Linear(in_features=128, out_features=32, bias=True)
          (dropout): Dropout(p=0, inplace=False)
        )
        (sublayer): ModuleList(
          (0): SublayerConnection(
            (norm): LayerNorm((32,), eps=1e-05, elementwise_affine=True)
            (dropout): Dropout(p=0, inplace=False)
          )
          (1): SublayerConnection(
            (norm): LayerNorm((32,), eps=1e-05, elementwise_affine=True)
            (dropout): Dropout(p=0, inplace=False)
          )
        )
      )
      (4): EncoderLayer(
        (self_attn): MultiHeadedAttention(
          (linears): ModuleList(
            (0): Linear(in_features=32, out_features=32, bias=True)
            (1): Linear(in_features=32, out_features=32, bias=True)
            (2): Linear(in_features=32, out_features=32, bias=True)
            (3): Linear(in_features=32, out_features=32, bias=True)
          )
          (dropout): Dropout(p=0.1, inplace=False)
        )
        (feed_forward): PositionwiseFeedForward(
          (w_1): Linear(in_features=32, out_features=128, bias=True)
          (w_2): Linear(in_features=128, out_features=32, bias=True)
          (dropout): Dropout(p=0, inplace=False)
        )
        (sublayer): ModuleList(
          (0): SublayerConnection(
            (norm): LayerNorm((32,), eps=1e-05, elementwise_affine=True)
            (dropout): Dropout(p=0, inplace=False)
          )
          (1): SublayerConnection(
            (norm): LayerNorm((32,), eps=1e-05, elementwise_affine=True)
            (dropout): Dropout(p=0, inplace=False)
          )
        )
      )
      (5): EncoderLayer(
        (self_attn): MultiHeadedAttention(
          (linears): ModuleList(
            (0): Linear(in_features=32, out_features=32, bias=True)
            (1): Linear(in_features=32, out_features=32, bias=True)
            (2): Linear(in_features=32, out_features=32, bias=True)
            (3): Linear(in_features=32, out_features=32, bias=True)
          )
          (dropout): Dropout(p=0.1, inplace=False)
        )
        (feed_forward): PositionwiseFeedForward(
          (w_1): Linear(in_features=32, out_features=128, bias=True)
          (w_2): Linear(in_features=128, out_features=32, bias=True)
          (dropout): Dropout(p=0, inplace=False)
        )
        (sublayer): ModuleList(
          (0): SublayerConnection(
            (norm): LayerNorm((32,), eps=1e-05, elementwise_affine=True)
            (dropout): Dropout(p=0, inplace=False)
          )
          (1): SublayerConnection(
            (norm): LayerNorm((32,), eps=1e-05, elementwise_affine=True)
            (dropout): Dropout(p=0, inplace=False)
          )
        )
      )
    )
    (norm): LayerNorm((32,), eps=1e-05, elementwise_affine=True)
    (norm2): LayerNorm((32,), eps=1e-05, elementwise_affine=True)
  )
  (oned_final_embed): Sequential(
    (0): Linear(in_features=32, out_features=1, bias=True)
  )
  (out_fc): Linear(in_features=77, out_features=49, bias=True)
)
# of Parameters: 82671
Training epoch 1, Batch 500/1000: LR=1.00e-04, Loss=2.50e-01 BER=8.23e-02 FER=8.53e-01
Training epoch 1, Batch 1000/1000: LR=1.00e-04, Loss=2.19e-01 BER=6.81e-02 FER=8.41e-01
Epoch 1 Train Time 52.272839307785034s


Test Loss 4: 1.95e-01 5: 1.36e-01 6: 8.49e-02
Test FER 4: 9.48e-01 5: 8.61e-01 6: 6.99e-01
Test BER 4: 5.84e-02 5: 3.95e-02 6: 2.42e-02
…
