…
Self-Attention Sparsity Ratio=74.55%, Self-Attention Complexity Ratio=12.72%
Mask:
 tensor([[[[False,  True,  True,  ...,  True,  True,  True],
          [ True, False,  True,  ...,  True,  True,  True],
          [ True,  True, False,  ...,  True,  True,  True],
          ...,
          [ True,  True,  True,  ..., False,  True,  True],
          [ True,  True,  True,  ...,  True, False,  True],
          [ True,  True,  True,  ...,  True,  True, False]]]])
ECC_Transformer(
  (decoder): Encoder(
    (layers): ModuleList(
      (0): EncoderLayer(
        (self_attn): MultiHeadedAttention(
          (linears): ModuleList(
            (0): Linear(in_features=32, out_features=32, bias=True)
            (1): Linear(in_features=32, out_features=32, bias=True)
            (2): Linear(in_features=32, out_features=32, bias=True)
            (3): Linear(in_features=32, out_features=32, bias=True)
          )
          (dropout): Dropout(p=0.1, inplace=False)
        )
        (feed_forward): PositionwiseFeedForward(
          (w_1): Linear(in_features=32, out_features=128, bias=True)
          (w_2): Linear(in_features=128, out_features=32, bias=True)
          (dropout): Dropout(p=0, inplace=False)
        )
        (sublayer): ModuleList(
          (0): SublayerConnection(
            (norm): LayerNorm((32,), eps=1e-05, elementwise_affine=True)
            (dropout): Dropout(p=0, inplace=False)
          )
          (1): SublayerConnection(
            (norm): LayerNorm((32,), eps=1e-05, elementwise_affine=True)
            (dropout): Dropout(p=0, inplace=False)
          )
        )
      )
      (1): EncoderLayer(
        (self_attn): MultiHeadedAttention(
          (linears): ModuleList(
            (0): Linear(in_features=32, out_features=32, bias=True)
            (1): Linear(in_features=32, out_features=32, bias=True)
            (2): Linear(in_features=32, out_features=32, bias=True)
            (3): Linear(in_features=32, out_features=32, bias=True)
          )
          (dropout): Dropout(p=0.1, inplace=False)
        )
        (feed_forward): PositionwiseFeedForward(
          (w_1): Linear(in_features=32, out_features=128, bias=True)
          (w_2): Linear(in_features=128, out_features=32, bias=True)
          (dropout): Dropout(p=0, inplace=False)
        )
        (sublayer): ModuleList(
          (0): SublayerConnection(
            (norm): LayerNorm((32,), eps=1e-05, elementwise_affine=True)
            (dropout): Dropout(p=0, inplace=False)
          )
          (1): SublayerConnection(
            (norm): LayerNorm((32,), eps=1e-05, elementwise_affine=True)
            (dropout): Dropout(p=0, inplace=False)
          )
        )
      )
      (2): EncoderLayer(
        (self_attn): MultiHeadedAttention(
          (linears): ModuleList(
            (0): Linear(in_features=32, out_features=32, bias=True)
            (1): Linear(in_features=32, out_features=32, bias=True)
            (2): Linear(in_features=32, out_features=32, bias=True)
            (3): Linear(in_features=32, out_features=32, bias=True)
          )
          (dropout): Dropout(p=0.1, inplace=False)
        )
        (feed_forward): PositionwiseFeedForward(
          (w_1): Linear(in_features=32, out_features=128, bias=True)
          (w_2): Linear(in_features=128, out_features=32, bias=True)
          (dropout): Dropout(p=0, inplace=False)
        )
        (sublayer): ModuleList(
          (0): SublayerConnection(
            (norm): LayerNorm((32,), eps=1e-05, elementwise_affine=True)
            (dropout): Dropout(p=0, inplace=False)
          )
          (1): SublayerConnection(
            (norm): LayerNorm((32,), eps=1e-05, elementwise_affine=True)
            (dropout): Dropout(p=0, inplace=False)
          )
        )
      )
      (3): EncoderLayer(
        (self_attn): MultiHeadedAttention(
          (linears): ModuleList(
            (0): Linear(in_features=32, out_features=32, bias=True)
            (1): Linear(in_features=32, out_features=32, bias=True)
            (2): Linear(in_features=32, out_features=32, bias=True)
            (3): Linear(in_features=32, out_features=32, bias=True)
          )
          (dropout): Dropout(p=0.1, inplace=False)
        )
        (feed_forward): PositionwiseFeedForward(
          (w_1): Linear(in_features=32, out_features=128, bias=True)
          (w_2): Linear(in_features=128, out_features=32, bias=True)
          (dropout): Dropout(p=0, inplace=False)
        )
        (sublayer): ModuleList(
          (0): SublayerConnection(
            (norm): LayerNorm((32,), eps=1e-05, elementwise_affine=True)
            (dropout): Dropout(p=0, inplace=False)
          )
          (1): SublayerConnection(
            (norm): LayerNorm((32,), eps=1e-05, elementwise_affine=True)
            (dropout): Dropout(p=0, inplace=False)
          )
        )
      )
    )
    (norm): LayerNorm((32,), eps=1e-05, elementwise_affine=True)
    (norm2): LayerNorm((32,), eps=1e-05, elementwise_affine=True)
  )
  (oned_final_embed): Sequential(
    (0): Linear(in_features=32, out_features=1, bias=True)
  )
  (out_fc): Linear(in_features=187, out_features=121, bias=True)
)
# of Parameters: 79709
Training epoch 1, Batch 500/1000: LR=1.00e-04, Loss=2.51e-01 BER=8.09e-02 FER=9.61e-01
Training epoch 1, Batch 1000/1000: LR=1.00e-04, Loss=2.23e-01 BER=6.68e-02 FER=9.58e-01
Epoch 1 Train Time 79.22583436965942s


Test Loss 4: 2.15e-01 5: 1.56e-01 6: 1.04e-01
Test FER 4: 9.99e-01 5: 9.91e-01 6: 9.43e-01
Test BER 4: 5.71e-02 5: 3.83e-02 6: 2.34e-02
…
